…
= roc_auc_score(y_test, y_pred_lr)\nacc_lr = accuracy_score(y_test, (y_pred_lr > 0.5).astype(int))\n\nprint(f\"\\nLogistic Regression Baseline:\")\nprint(f\"Test AUC: {auc_lr:.4f}\")\nprint(f\"Test Accuracy: {acc_lr:.4f}\")\nprint(f\"\\nNeural Network AUC Improvement: {(auc_nn - auc_lr):.4f}\")",
        "output": "Neural Network Architecture:\nModel: \"sequential\"\n_________________________________________________________________\n Layer (type)                Output Shape              Param #   \n=================================================================\n dense (Dense)               (None, 64)                576       \n dropout (Dropout)           (None, 64)                0         \n dense_1 (Dense)             (None, 32)                2080      \n dropout_1 (Dropout)         (None, 32)                0         \n dense_2 (Dense)             (None, 1)                 33        \n=================================================================\nTotal params: 2,689\nTrainable params: 2,689\nNon-trainable params: 0\n_________________________________________________________________\n\nNeural Network Performance:\nTest AUC: 0.8642\nTest Accuracy: 0.8050\nActual epochs trained: 23\n\nLogistic Regression Baseline:\nTest AUC: 0.7841\nTest Accuracy: 0.7850\n\nNeural Network AUC Improvement: 0.0801"
…
