…
s Naive:\")\nprint(f\"MAPE improvement: {naive_mape - mape:.2f} percentage points\")",
        "output": "Revenue series: min=50.00, max=290.18, mean=167.84\nTrain: 730 days, Val: 55 days, Test: 66 days\n\nSequences created:\nX_train shape: (693, 30), y_train shape: (693, 7)\nX_test shape: (30, 30), y_test shape: (30, 7)\n\nModel Architecture:\nModel: \"sequential\"\n_________________________________________________________________\n Layer (type)                Output Shape              Param #   \n=================================================================\n conv1d (Conv1D)             (None, 30, 64)            256       \n max_pooling1d (MaxPooling1D (None, 15, 64)            0         \n lstm (LSTM)                 (None, 64)                33024     \n dense (Dense)               (None, 32)                2080      \n dense_1 (Dense)             (None, 7)                 231       \n=================================================================\nTotal params: 35,591\n\nDeep Learning Model Performance on Test Set:\nMAE: $6.83\nRMSE: $8.34\nMAPE: 4.21%\nDirectional Accuracy: 76.7%\n\nNaive Forecast (last value repeated):\nMAE: $12.45\nRMSE: $15.20\nMAPE: 7.89%\n\nDL Model vs Naive:\nMAPE improvement: 3.68 percentage points"
      }
    },
    {
      "type": "decision_context_block",
…
